…
y()","metadata":{"trusted":true,"execution":{"iopub.status.busy":"2025-06-16T16:36:35.392111Z","iopub.execute_input":"2025-06-16T16:36:35.392517Z","iopub.status.idle":"2025-06-16T16:36:35.684590Z","shell.execute_reply.started":"2025-06-16T16:36:35.392482Z","shell.execute_reply":"2025-06-16T16:36:35.683016Z"}},"outputs":[{"name":"stdout","text":"Model: \"sequential\"\n_________________________________________________________________\n Layer (type)                Output Shape              Param #   \n=================================================================\n conv2d (Conv2D)             (None, 222, 222, 32)      896       \n                                                                 \n max_pooling2d (MaxPooling2D  (None, 111, 111, 32)     0         \n )                                                               \n                                                                 \n conv2d_1 (Conv2D)           (None, 109, 109, 32)      9248      \n                                                                 \n max_pooling2d_1 (MaxPooling  (None, 54, 54, 32)       0         \n 2D)                                                             \n                                                                 \n conv2d_2 (Conv2D)           (None, 52, 52, 64)        18496     \n                                                                 \n max_pooling2d_2 (MaxPooling  (None, 26, 26, 64)       0         \n 2D)                                                             \n                                                                 \n flatten (Flatten)           (None, 43264)             0         \n                                                                 \n dense (Dense)               (None, 64)                2768960   \n                                                                 \n dropout (Dropout)           (None, 64)                0         \n                                                                 \n dense_1 (Dense)             (None, 1)                 65        \n                                                                 \n=================================================================\nTotal params: 2,797,665\nTrainable params: 2,797,665\nNon-trainable params: 0\n_________________________________________________________________\n","output_type":"stream"}],"execution_count":8},{"cell_type":"markdown","source":"- **Output Shape**: The size
…
